…
.., 0., 0., 0.], [1., 0., 0., ..., 0., 0., 0.], ..., [0., 0., 0., ..., 0., 0., 0.], [1., 0., 0., ..., 0., 0., 0.], [0., 0., 0., ..., 0., 0., 0.]], dtype=float32) 모델 1from tensorflow.keras import models, layers, optimizers 1234sr = models.Sequential(name='Softmax_regression')sr.add(layers.Flatten(input_shape=[28, 28]))sr.add(layers.Dense(10, activation='softmax'))sr.summary() Model: &quot;Softmax_regression&quot; _________________________________________________________________ Layer (type) Output Shape Param # ================================================================= flatten (Flatten) (None, 784) 0 _________________________________________________________________ dense (Dense) (None, 10) 7850 ================================================================= Total params: 7,850 Trainable params: 7,850 Non-trainable params: 0 _________________________________________________________________ 1. 모델구현 1 Softmax regression1 DNN123456789DNN = models.Sequential(name='DNN')#Input layerDNN.add(layers.Flatten(input_shape=[28, 28]))#hidden layerDNN.add(layers.Dense(100, activation='relu'))DNN.add(layers.Dense(100, activation='relu'))#output layerDNN.add(layers.Dense(10, activation='softmax'))DNN.summary() Model: &quot;DNN&quot; _________________________________________________________________ Layer (type) Output Shape Param # ================================================================= flatten_1 (Flatten) (None, 784) 0 _________________________________________________________________ dense_1 (Dense) (None, 100) 78500 _________________________________________________________________ dense_2 (Dense) (None, 100) 10100 _________________________________________________________________ dense_3 (Dense) (None, 10) 1010 ================================================================= Total params: 89,610 Trainable params: 89,610 Non-trainable params: 0 _________________________________________________________________ CNN1234567891011121314151617CNN = models.Sequential(name='CNN')# x data : (28, 28) -&gt; 2차원# dense : (764) -&gt; 1차원# convolution : (28, 28, 1) -&gt; 3차원#Input layerCNN.add(layers.Reshape([28, 28, 1], input_shape=[28, 28]))#hidden layerCNN.add(layers.Conv2D(10, kernel_size = 5, activation='relu'))CNN.add(layers.MaxPool2D(pool_size = 3))CNN.add(layers.Conv2D(10, kernel_size = 5, activation='relu'))CNN.add(layers.MaxPool2D(pool_size = 3))#output layerCNN.add(layers.Flatten())CNN.add(layers.Dense(10, activation='softmax'))CNN.summary() Model: &quot;CNN&quot; _________________________________________________________________ Layer (type) Output Shape Param # ================================================================= reshape (Reshape) (None, 28, 28, 1) 0 _________________________________________________________________ conv2d (Conv2D) (None, 24, 24, 10) 260 _________________________________________________________________ max_pooling2d (MaxPooling2D) (None, 8, 8, 10) 0 _________________________________________________________________ conv2d_1 (Conv2D) (None, 4, 4, 10) 2510 _________________________________________________________________ max_pooling2d_1 (MaxPooling2 (None, 1, 1, 10) 0 _________________________________________________________________ flatten_2 (Flatten) (None, 10) 0 _________________________________________________________________ dense_4 (Dense) (None, 10) 110 ================================================================= Total params: 2,880 Trainable params: 2,880 Non-trainable params: 0 _________________________________________________________________ 2. 학습 Softmax Regression1234sr.compile(optimizer=optimizers.SGD(learning_rate=0.01), loss='categorical_crossentropy', metrics=['acc'])sr.fit(x_train_minmax, y_train_onehot, epochs=20) Epoch 1/20 1875
…
, 0., 1.], [0., 0., 0., ..., 0., 0., 1.], ..., [0., 0., 0., ..., 0., 0., 1.], [0., 1., 0., ..., 0., 0., 0.], [0., 1., 0., ..., 0., 0., 0.]], dtype=float32) 모델 1from tensorflow.keras import models, layers, optimizers 1234sr = models.Sequential(name='Softmax_regression')sr.add(layers.Flatten(input_shape=[32, 32, 3]))sr.add(layers.Dense(10, activation='softmax'))sr.summary() Model: &quot;Softmax_regression&quot; _________________________________________________________________ Layer (type) Output Shape Param # ================================================================= flatten_19 (Flatten) (None, 3072) 0 _________________________________________________________________ dense_18 (Dense) (None, 10) 30730 ================================================================= Total params: 30,730 Trainable params: 30,730 Non-trainable params: 0 _________________________________________________________________ 1. 모델구현 1 Softmax regression1 DNN123456789DNN = models.Sequential(name='DNN')#Input layerDNN.add(layers.Flatten(input_shape=[32, 32, 3]))#hidden layerDNN.add(layers.Dense(100, activation='relu'))DNN.add(layers.Dense(100, activation='relu'))#output layerDNN.add(layers.Dense(10, activation='softmax'))DNN.summary() Model: &quot;DNN&quot; _________________________________________________________________ Layer (type) Output Shape Param # ================================================================= flatten_20 (Flatten) (None, 3072) 0 _________________________________________________________________ dense_19 (Dense) (None, 100) 307300 _________________________________________________________________ dense_20 (Dense) (None, 100) 10100 _________________________________________________________________ dense_21 (Dense) (None, 10) 1010 ================================================================= Total params: 318,410 Trainable params: 318,410 Non-trainable params: 0 _________________________________________________________________ CNN123456789101112131415161718CNN = models.Sequential(name='CNN')# x data : (28, 28) -&gt; 2차원# dense : (764) -&gt; 1차원# convolution : (28, 28, 1) -&gt; 3차원#Input layerCNN.add(layers.Reshape([32, 32, 3], input_shape=[32, 32, 3]))# CNN.add(layers.Flatten(input_shape = [32, 32, 3]))#hidden layerCNN.add(layers.Conv2D(10, kernel_size = 5, activation='relu'))CNN.add(layers.MaxPool2D(pool_size = 3))CNN.add(layers.Conv2D(10, kernel_size = 5, activation='relu'))CNN.add(layers.MaxPool2D(pool_size = 3))#output layerCNN.add(layers.Flatten())CNN.add(layers.Dense(10, activation='softmax'))CNN.summary() Model: &quot;CNN&quot; _________________________________________________________________ Layer (type) Output Shape Param # ================================================================= reshape_6 (Reshape) (None, 32, 32, 3) 0 _________________________________________________________________ conv2d_11 (Conv2D) (None, 28, 28, 10) 760 _________________________________________________________________ max_pooling2d_6 (MaxPooling2 (None, 9, 9, 10) 0 _________________________________________________________________ conv2d_12 (Conv2D) (None, 5, 5, 10) 2510 _________________________________________________________________ max_pooling2d_7 (MaxPooling2 (None, 1, 1, 10) 0 _________________________________________________________________ flatten_21 (Flatten) (None, 10) 0 _________________________________________________________________ dense_22 (Dense) (None, 10) 110 ================================================================= Total params: 3,380 Trainable params: 3,380 Non-trainable params: 0 _________________________________________________________________ 2. 학습 Softmax Regression1234sr.compile(optimizer=optimizers.SGD(learning_rate=0.01), loss='categorical_crossentropy', metrics=['acc'])sr.fit(x_train_minmax, y_train_onehot, epochs=20) Epoch 1/20 1563
…
